trained_model.pth (torch, 97938 bytes, 12 tensors)

user_tower.model.0.weight f4 [128, 9]
00000000: 4e53 2e3e 6ab2 1c3e 4f92 c73e 0faa 8cbe
00000010: d6fb 5c3e 070c 0abd 1bf0 23be 43e7 a33e
00000020: ef23 2ebe 0dfb 553e d98a b6be 2104 c13c
00000030: 11c6 123d 49fb 773e d7d5 5c3d 9962 073e
00000040: e33a 303c 4476 463e f0e1 6e3e 539d 593e
00000050: 477f dfbc d21f 3f3e 0212 c0bd 5110 b3be
00000060: fab1 5dbe 4dbb 3b3e 6ddc 903d c6ec b7bd
00000070: 3fbe a53e f3e4 873e 9f47 6b3e a6b6 943d
00000080: 4ee8 793e 5fe2 acbe 42b5 efbd 82a4 aa3e
00000090: 528d 753d 415d 55bd c1b4 c63d a876 a03c
000000a0: 7f3e 9c3e d1a3 adbe dfbc 98be 7f12 71be
000000b0: f510 c13d 8b8c 7bbe d8d7 bcbb 80ea 14bd
000000c0: e49e ac3e 586f 543e 1047 c03e be3f 98be
000000d0: 7930 12be 865c 30be 6089 603e 9d33 9f3e
000000e0: 4593 b3bd 18a1 083e d4dc 543d a8bd d3be
000000f0: 9eb3 a5bd 2a57 953e 4ce2 4c3e f9f9 dc3c
00000100: ac75 a03e cb48 82be bf9c 8abe 9cc4 a9be
00000110: 82aa bbbc cb99 343d a090 a7be 0e7f 7b3e
00000120: 9b97 2b3e 60f8 893e 8bf4 41be e73c d43d
00000130: b45f 9bbe db5e 58be 6cb2 1dbd 5202 8cbe
00000140: 4109 3abe f698 67be e4fb cf3d dccf 683e
00000150: 950e 753c ea67 cebd 104b ce3c e1b3 53be
00000160: fd62 75be 5354 19be 030d 75be 6f13 d3bd
00000170: 7244 943e 114b 55bd 49d0 413e e412 c2be
00000180: e168 3d3e 7e56 a9bd 3915 7a3c bc44 a8bd
00000190: 48a5 bd3c 85d7 0dbe f570 9b3e 572d d03d
000001a0: bf6e 573e 0819 cb3d b1f7 073e 5b03 f83d
000001b0: 0102 d53c f3be 993d 59f9 353e 1591 493e
000001c0: 2665 3dbe 8a48 a5be ff5b 8ebe 47a8 83be
000001d0: 6be9 58be 8fea cb3c eff7 b6bd f074 92be
000001e0: bea8 543e 3389 e6bb 77ed adbe 43fc 0f3e
000001f0: 26e2 a03e a574 133d 4929 233e 4fb9 8cbe
00000200: 9807 0a3e a734 703e 85ea 0bbe f3bc 203e
00000210: e610 aebd 4225 713e 3774 52be f1d2 03be
00000220: f643 113e 832d f0bd ea98 193e 86b7 363e
00000230: 370c 313d c434 b2be 1043 bc3d b047 1fbe
00000240: 5197 2f3e 48f4 a43e 832e e93c e039 ffbd
00000250: 277a 2a3e 2a9f 693d ab9d dcbe d804 443e
00000260: 3321 bf3e 3135 a6bd 7354 63bd f87f 1fbe
00000270: 28c9 9a3e b440 913c 9ef4 bcbe 5d71 a2be
00000280: edda 84be 7998 72be 05df c53d b0c4 acbd
00000290: 3402 33be df76 623e 62c9 af3e 69c5 6ebe
000002a0: fcc6 39bd 1559 293d 475f 70bd 8550 b23d
000002b0: 8d26 5dbe f0c1 663e a83f 583d 066a 4abe
000002c0: 86e9 76be ea28 8f3e 5c8c c03d e19e 80bc
000002d0: 3b7a 47be 405d a63e 25c0 25be 3078 c23d
000002e0: 7867 8ebe 349d e9bd 86c3 3ebe 85da 643e
000002f0: ff74 81be 4a6a 243c 50d1 92be 49b1 9e3e
00000300: d484 013e a1d3 fb3d cbee 9f3e 0827 793e
00000310: b7d7 173e 2398 ad3c 345c a13e e1ad a4be
00000320: 3df6 353e 4fbb 983d 7b81 25be 865d 6d3e
00000330: 561b 16be b470 82bd e03e 443e 3ea7 22be
00000340: d88b f2bd b91a 863e d4aa 7dbe 97e5 383e
00000350: 92a2 b23e 0fe9 86be 25b0 e23d 7c42 2c3d
00000360: b8ee 7bbe 7071 7f3e 0d26 9e3e 762f f9bd
00000370: c886 893d 376c 923e af5a fc3d 1058 2f3e
00000380: fd39 3abe 5916 893e e940 913e 40ec 80be
00000390: 6acb 603e c11d 9cbe 1403 c2bd c11c 71be
000003a0: 5ab0 70bb f3ba 72be cb96 8bbd 43c7 b5be
000003b0: 6ca5 0b3e 2a95 fb3d 7a11 5f3e 99a2 133e
000003c0: 963e 0bbc 0dd5 cbbd 179d 16bd e78d 5c3e
000003d0: d5ef 193e 36e9 b9be c608 043e ff40 393e
000003e0: 7b71 8a3d 352d 89be 3b89 9ebe 553c 0d3e
000003f0: b462 73bb 7101 073e 3fdc 66bd 3b75 2abe
0.17023966 0.15302435 0.38978812 -0.27473494 0.21580443 -0.033702876 -0.16009562 0.32012376
-0.17005895 0.2089655 -0.35652807 0.02356154 0.035833422 0.24216951 0.05391487 0.13221206
0.010756227 0.19381052 0.23328376 0.2125142 -0.02728237 0.18664482 -0.09378435 -0.34973386
-0.21649924 0.18333168 0.07073293 -0.08980708 0.3237171 0.26541862 0.2297654 0.072614
0.24405023 -0.33766457 -0.11704494 0.33328635 0.059949227 -0.052090887 0.09702445 0.01958783
0.3051643 -0.33914044 -0.29831597 -0.23542212 0.094270624 -0.24565332 -0.0057630353 -0.03635645
0.33714974 0.207456 0.37554216 -0.2973613 -0.14276303 -0.17222795 0.21927404 0.31094065
-0.08768324 0.13342702 0.05196841 -0.41355634 -0.080909 0.29168063 0.200082 0.026974665
0.31339777 -0.25446162 -0.27072713 -0.33157814 -0.022908453 0.04409198 -0.32727528 0.24560186
0.16757052 0.26947308 -0.18940942 0.10363179 -0.30346453 -0.21129934 -0.038500234 -0.2734552
-0.18167593 -0.22616944 0.10155466 0.22735542 0.01495709 -0.10078414 0.025182277 -0.20674087
-0.23963542 -0.14973573 -0.23930745 -0.10306441 0.2895847 -0.052073542 0.1892711 -0.37905037
0.1849704 -0.0826845 0.015263849 -0.08216235 0.023150101 -0.13851745 0.30359617 0.10164898
0.2103834 0.09916884 0.1327808 0.12110015 0.026001932 0.07507124 0.177709 0.1968425
-0.18495616 -0.32281905 -0.27804562 -0.25714323 -0.21182792 0.02489212 -0.08934008 -0.2860484
0.20767495 -0.0070353984 -0.33970234 0.14061074 0.31422538 0.035999913 0.15933718 -0.2748513
0.1347946 0.23457585 -0.13663681 0.15697078 -0.08499317 0.23549369 -0.20552145 -0.12873437
0.14186081 -0.11727431 0.14999738 0.17843446 0.04322454 -0.34805882 0.09192479 -0.1555469
0.17147566 0.32217622 0.028464561 -0.12462211 0.1664816 0.057036556 -0.4308904 0.19142473
0.37330016 -0.08115614 -0.05550046 -0.1557616 0.30231595 0.017731048 -0.36905378 -0.31727114
-0.25948277 -0.23690976 0.09661678 -0.08435953 -0.17481309 0.22115658 0.3433333 -0.23317493
-0.045355782 0.04134472 -0.058684614 0.08706764 -0.21596737 0.22534919 0.052795082 -0.19767007
-0.2411252 0.27960902 0.094017714 -0.01570076 -0.19480221 0.3249302 -0.16186579 0.0949558
-0.27813315 -0.11406937 -0.18629274 0.22348984 -0.25284573 0.010035107 -0.28675318 0.30994633
0.12648326 0.122962244 0.31236872 0.24331295 0.14828382 0.021190709 0.31515658 -0.3216391
0.17769714 0.07457601 -0.16162674 0.23180208 -0.14658865 -0.06369153 0.1916461 -0.1588411
-0.11843079 0.26192263 -0.24772197 0.18056332 0.34889656 -0.26349685 0.11068753 0.042055592
-0.24602783 0.24945617 0.30888405 -0.121672556 0.067151606 0.28598186 0.12321984 0.17123437
-0.18186183 0.26774862 0.28369835 -0.25180244 0.21952596 -0.3049145 -0.09473243 -0.23546125
-0.0036726207 -0.23704128 -0.06815871 -0.35503587 0.13637322 0.1228431 0.2178401 0.14417495
-0.008498808 -0.099527456 -0.036770906 0.21538506 0.15032895 -0.36310738 0.12893972 0.180912
0.06759926 -0.26792303 -0.30964074 0.13792546 -0.003713769 0.13184144 -0.056362387 -0.16646282

user_tower.model.0.bias f4 [128]
00000000: 5876 3e3e 0040 04be c1ab 983c 5125 c43e
00000010: 66f8 49be 9daf ffbd 2686 77be 912b c1bd
00000020: 8097 ddbd 3e04 babd e57c ac3d 3e8a 123d
00000030: b56d 2b3e 67e5 98bd 6591 49be d9a1 303e
00000040: 7e81 3cbe 4a07 4cbe 2c65 9b3e ee5a 55bd
00000050: 3805 743e d2c2 ae3b 9126 903e 107d c73e
00000060: 3b58 f53d 5123 66be 5996 db3d d06f bfbd
00000070: 2f4b a83e 7f19 e63d cba2 6ebd fc13 a83e
00000080: 6a5d 2abe 361b 85bc c3b7 ff3d fb19 7abe
00000090: e989 733e 4922 23bd b629 89be 2a8f e9bd
000000a0: 6f7e 6ebe ddc7 55bd 317d b7bd f46c 173e
000000b0: 7e5c 3b3e 549e d33d 5ba3 5d3e a97b e4bd
000000c0: b6b0 a03e ed0a e6bd 0e0a b8bd 67ad e53d
000000d0: 967a f9bc 9df0 f23b 3293 6abe c319 0abe
000000e0: 0c8e 8e3e 2d6e 7ebd c9d2 923e 9847 52be
000000f0: 80b9 bf3e e0f3 b83e 5527 6abd c16a 943e
00000100: e990 833e 8541 9f3e 49a5 a93e 5fbc 95be
00000110: 0acf e6bd 0344 b03e 2d0d 6b3e 5a41 153e
00000120: 30c9 bf3d 2e2b 883e e30b 2abd 37a2 b63e
00000130: 0737 4ebd 32f0 21be 5969 74be 4b0a 7b3e
00000140: 9786 4c3e a803 42bc d17e ef3d 9786 963e
00000150: 93a5 663d 85c4 3fbe 4755 86be 4fb6 93be
00000160: 898a 9cbd 9305 863e e17b 72be 43cc 93bd
00000170: 4671 983b f352 36bd 094c 90be 916c 693c
00000180: 34d1 1d3e b1b5 aabe 5b76 b738 834e 323d
00000190: cfc2 bd3c 6d9c 8ebe 9073 9ebe b518 36bd
000001a0: 70ca f5bb 8b50 373e c046 51bd 1a5b 923e
000001b0: 1fbd 8d3e 1b92 45bd 59e6 e63d 22ab c13d
000001c0: 4feb 7fbe 4ea7 ae3c 80b1 98be 4a2a bd3e
000001d0: 8508 f4bd 7efb e2bd 7e1a 2f3e 59bc 933c
000001e0: 3b55 8b3e 08c0 62bd 30c9 5b3d b89b 02be
000001f0: 8861 133e 6e2b 5f3e 175f 3bbe 1da5 c33d
0.18599832 -0.12915039 0.018636586 0.3830972 -0.19723663 -0.124846675 -0.24172267 -0.09432138
-0.10819912 -0.090828404 0.08422259 0.03577637 0.16741069 -0.0746563 -0.1968437 0.1724924
-0.18408772 -0.19924656 0.30350626 -0.05208867 0.23830116 0.005333283 0.28154424 0.38962603
0.11979719 -0.2247441 0.10722036 -0.093474984 0.3286986 0.11235332 -0.05826072 0.32827747
-0.16637197 -0.016248327 0.12486222 -0.24423973 0.23783077 -0.03982762 -0.26789635 -0.114042595
-0.23290418 -0.052192558 -0.08959425 0.14787656 0.18297002 0.10332933 0.21644346 -0.11156399
0.3138482 -0.11232553 -0.08986293 0.112147145 -0.030453961 0.0074139372 -0.22907713 -0.1348639
0.27842748 -0.06211679 0.2867644 -0.20535123 0.37446213 0.36123562 -0.057166416 0.28987697
0.25696495 0.31104675 0.33133915 -0.29245278 -0.11269958 0.3442689 0.22954245 0.14575711
0.09364545 0.26595443 -0.041515242 0.35670635 -0.050345447 -0.15814283 -0.23868312 0.24515645
0.19973217 -0.011841692 0.1169411 0.2939956 0.056310248 -0.1872731 -0.26236936 -0.28850028
-0.07643611 0.26176128 -0.23680069 -0.07216694 0.004652175 -0.0445127 -0.2818301 0.014247076
0.15411836 -0.33341745 8.7481654e-05 0.043531906 0.023164181 -0.27853718 -0.30947542 -0.044457156
-0.007500939 0.17901818 -0.051092863 0.2858513 0.2768335 -0.04823504 0.11274404 0.09456469
-0.24992107 0.021320011 -0.29822922 0.36946326 -0.119156875 -0.110831246 0.1709995 0.018034147
0.27213463 -0.055358917 0.053658664 -0.12754714 0.14392674 0.21793911 -0.18297993 0.09552977

user_tower.model.2.weight f4 [64, 128]
00000000: 7b3f 0e3d 0629 373d 617f c93c 4891 d63d
00000010: 18b9 20bd 49c2 963d 60da 693d a095 29bd
00000020: bbae 22bd 450c 58bd 4991 3a3d c0f9 f93c
00000030: e189 0bbd 58f5 8b3b 93ad 9ebd 8882 36bd
00000040: 2f27 0f3d bfd8 89bd 6f9d ebbc 068f 94bd
00000050: 9b1f ab3d 2af1 c83d 9231 953c 2844 553d
00000060: de75 0a3c fb01 c0bc a3c9 283d 32e4 6d3d
00000070: 6c45 d23c cb25 b23d 04b0 b93d 76cd 6dbd
00000080: f477 8a3d 92fd 4d3d 8b91 d03d eb36 f9bb
00000090: faf8 d8bc 2737 40bd be27 383d 2921 ae3d
000000a0: 6b01 c53d 9505 823d bacc 5c3d a866 5a3d
000000b0: eaf7 a83d 0ebb be3d f08a 43bd 7da2 013d
000000c0: 087b ce3d 1f83 c63c 0845 9fbd 8e60 ebbd
000000d0: 191f bc3d 071d 58bd 6925 1a3b 3700 0e3d
000000e0: e262 a03c 1dc8 c53d 833e 05bd 0458 363d
000000f0: d87a ca3d 5ad3 193d 203a 98bd 066a dcbd
00000100: 0ad2 0b3d 27ae e83c 7dea 85bd caa7 32ba
00000110: 32fc f33d 4d03 a73c a9c5 d13c 0c51 063e
00000120: db7b a83d 346e 6dbc 5b67 2dbd 30fd 1b3d
00000130: a4e0 553d 9cfc 013e 54b8 113e 5a2c 6e3c
00000140: 0daa e13c 8ae6 31bd 89cf 72bd ff8e 063d
00000150: 9074 093e 866e 9d3c eef1 b03d 4849 b8bd
00000160: f166 173d 260b 873d 800f 323d 4415 a6bd
00000170: ae10 383d 94d4 e3bb 3571 b23d 6d40 273d
00000180: fcda bb3d 98dd f13c f3dd 153d 8457 40bd
00000190: 4720 afbc 0fff 9e3d d90f b23a 7517 fbbc
000001a0: b22d fd3d fea6 ff3c 2f3a 12bd e620 a7bb
000001b0: 4856 d63b c58d 413d 24ba 5abc 5884 fa3c
000001c0: c8ef 33bd dc50 3a3d 9411 133e 859f 493d
000001d0: dfb7 ef3c 63c9 ed3b 4d3a fd3d 8fd2 11bd
000001e0: 0fa2 d7bc 50c7 673d f6fa 3cbd cb1c 52bd
000001f0: 2f6a 52bd f484 f83c 6296 2b3d ce50 103d
00000200: b4ec 793c 4a4e 4cbd 19a0 933d c46b 553d
00000210: 74c1 05be 1f91 14bd 75ce 2ebd a73b 673d
00000220: aff7 9b3d cfba 17bd 70cd 0abd 5cb1 9e3d
00000230: bcd6 8abc 32e7 a9bb d65e e63c 61ed 803d
00000240: 1b19 b3bd 7ead 04bb b273 003d a0d7 3838
00000250: 8e32 683d a4c8 933d 746b c2bd af27 85bd
00000260: f613 a7bd 89f5 bb3d a7de bbba afdb 98bd
00000270: 7200 d43c e045 ba3d a232 62bc e016 92bd
00000280: 9ac5 94bb 3f6e 5dbd 43af 13bd 7bcb 6bbd
00000290: 8164 623c ca50 60bc 7781 33bd 17ba b13d
000002a0: 5bdc 62bd 2cf9 e2bc cd6c 003c 26f9 d8bb
000002b0: e5fc 07bc 0a01 babc c1fc 37bd 5115 153d
000002c0: 0a29 c9bc f529 923d 5a15 d0bd e086 89bc
000002d0: 5b96 dabd cf8d 39bd 95ad 18bc d34a 6cbd
000002e0: 6151 fcbd 4cfd 2e3d 91ac 66bd f57b 22bd
000002f0: 0a55 b33b 90ed 7dbc 2c29 27bd 833a 8fbc
00000300: 1c1c 7b3d a0b5 57bd 1467 06bc edf1 60bc
00000310: 7c43 9dbd cbf2 143d a2ac 97bb 9c5e 72bd
00000320: 9f7e 49bd 05bf ce3c 2bfc c73d 6465 6b3d
00000330: c8c1 903d 425b a03b 43fc b63a d361 783d
00000340: f296 c4bd 30ed ff3b 493f cabc 036e 70bd
00000350: 66a9 8bbd 7952 243d 3628 ef3b c64d e2bc
00000360: f0af 933b 0f0a 813d 8fb1 20bd e576 913d
00000370: e2ae 11bd 66e5 f3bd 68d0 febc 1b6f a7bc
00000380: 997b b9bd bbea 1a3d bb51 c43c eb00 33bb
00000390: d411 17bd 0807 053d 1c30 db3d ce08 b9bd
000003a0: 1eed 003d 363d fe3c 45d1 223d facd 1d3d
000003b0: ae41 e93b 79dc cf3d 125f 363d 3d5e 7b3d
000003c0: 7bcf e7bc 9d9d 07bd 6727 4b3d 049f d23c
000003d0: 032a 6fbd 960e c13d c61b 57bd babf ab3c
000003e0: 8ed3 12be 2159 08bc 1b30 583d be6d da3c
000003f0: d7c0 01bd 59d9 303d 46ac e8bd 591b d73d
0.03472851 0.044716857 0.024596872 0.10476929 -0.03923902 0.07361276 0.057093024 -0.04140246
-0.039717417 -0.052746076 0.04554871 0.030514598 -0.03406704 0.0042711906 -0.077479504 -0.044558078
0.034949478 -0.06730794 -0.028761594 -0.07253842 0.08355638 0.098116234 0.018212114 0.052066952
0.008450953 -0.023438444 0.04120792 0.058078952 0.025667869 0.08698615 0.090667754 -0.05805727
0.067611605 0.05029065 0.1018401 -0.0076054237 -0.026485909 -0.046927597 0.044959776 0.085024185
0.09619411 0.06348721 0.05390618 0.053320557 0.08250411 0.093130216 -0.047739923 0.0316491
0.1008206 0.024232445 -0.077768385 -0.11493026 0.09185619 -0.052762058 0.0023520833 0.034668174
0.019578401 0.09657309 -0.03253032 0.044517532 0.09886712 0.037555076 -0.074329615 -0.1076241
0.034135856 0.028403355 -0.06538866 -0.00068151637 0.11913337 0.020387316 0.025606947 0.13116854
0.082267486 -0.0144916065 -0.042334896 0.038083255 0.052216187 0.12694019 0.14230472 0.014536941
0.027546907 -0.04343275 -0.059279952 0.032851215 0.13423371 0.01921774 0.086398944 -0.08998352
0.036963407 0.06593923 0.043471813 -0.08109525 0.044937782 -0.0069528315 0.08712999 0.040832926
0.09172627 0.02952461 0.03658862 -0.04695846 -0.021377696 0.07763492 0.0013585045 -0.030650834
0.12362231 0.031207558 -0.03570002 -0.0051003573 0.0065410472 0.047254343 -0.013350043 0.030580685
-0.043929845 0.04548727 0.14362174 0.049224395 0.029262481 0.007256673 0.123646356 -0.035601195
-0.026322393 0.056586564 -0.046137773 -0.05129699 -0.051370796 0.030336834 0.041891463 0.03523331
0.015254188 -0.04987935 0.072082706 0.052104726 -0.13062078 -0.03627121 -0.04267736 0.056453373
0.07615601 -0.03704339 -0.033887327 0.07748672 -0.016948096 -0.0051850313 0.028121393 0.062952764
-0.08745023 -0.002024501 0.031360336 4.4069835e-05 0.056688838 0.072160035 -0.09493151 -0.0650171
-0.08158104 0.091776915 -0.0014333323 -0.07463776 0.025879119 0.09095359 -0.013806017 -0.07133269
-0.0045401575 -0.054060217 -0.036055814 -0.0575671 0.013817907 -0.013691137 -0.04382464 0.08678072
-0.05538593 -0.027706705 0.00783844 -0.0066214977 -0.008300041 -0.022705574 -0.04491878 0.036397282
-0.024555702 0.07136909 -0.101603225 -0.016787946 -0.10673209 -0.045301255 -0.009318729 -0.057688545
-0.12320209 0.04272203 -0.056316916 -0.039668996 0.005472784 -0.015498534 -0.04081075 -0.017483955
0.061306104 -0.052663445 -0.008203287 -0.013729555 -0.07678887 0.036364358 -0.0046287337 -0.059172258
-0.04919302 0.02523757 0.09764894 0.05746974 0.07068211 0.0048936913 0.0013960678 0.060640167
-0.09599103 0.0078102574 -0.02468838 -0.058698665 -0.068194196 0.040117715 0.0072984947 -0.027624976
0.0045070574 0.06300747 -0.039231833 0.071027555 -0.035567172 -0.11908989 -0.031105235 -0.020438721
-0.090567775 0.037821513 0.023964753 -0.002731378 -0.036882237 0.03247741 0.107025355 -0.090348825
0.031476133 0.031035047 0.039750356 0.038526513 0.0071184253 0.10149474 0.04452426 0.06136917
-0.028297177 -0.033109296 0.049598124 0.02571059 -0.058389675 0.0942661 -0.05251672 0.020965446
-0.14338514 -0.008322031 0.052780252 0.026663657 -0.031678047 0.04317603 -0.113609836 0.10503263

user_tower.model.2.bias f4 [64]
00000000: a3d5 f53d 421e 9cbd 6547 9a3c acb8 3a3d
00000010: 3744 c2bc 8989 203d 168e df3d 7709 803c
00000020: a532 4bbd e6ac 3bbd 9b43 033d 25f2 2fbb
00000030: b8c4 c13d 1042 42bd eaab 033b bc3d 90bc
00000040: 62c2 233d 708b 1b3b 1740 0c3b abbf a8bc
00000050: 2e3b e53c 0173 83bd 48b1 67bb 4072 873d
00000060: 967a ce3d cc00 cb3d 099a 73bc 011a cb3d
00000070: 914d 5d3c b999 35bd 1e48 45bd 301d 8e3d
00000080: e182 733d 9c60 0f3e 9545 783c 9c2e b53d
00000090: 2d66 9b3d e787 19bd 518c 1abd 6c88 c93d
000000a0: f183 2b3d ae4e b2bd cab9 6abc 0130 fd3c
000000b0: da5e a8bc dbdc eb3d d60c bd3d 07f3 bb3b
000000c0: a604 61bc 3404 67bd 9520 e43d 7e14 b63d
000000d0: 1fcd d2bb 1c25 a33d 354d d9bc e176 b5bc
000000e0: ba0a cebc 251a 6dbd 48ae 253c b7ad fc3d
000000f0: 7f89 123c 093c 60bd fe26 973d c044 ee3c
0.120036386 -0.07622959 0.018832872 0.045586273 -0.023714168 0.039193664 0.109157726 0.015629513
-0.049608845 -0.045819186 0.032046895 -0.002684721 0.09461349 -0.047426283 0.0020091482 -0.017607562
0.0399803 0.0023734234 0.0021400505 -0.020599207 0.02798232 -0.0641842 -0.003535347 0.06613588
0.10081975 0.09912261 -0.014868268 0.09917069 0.013507263 -0.044336054 -0.04816448 0.06939161
0.059450988 0.14001697 0.015153308 0.08846781 0.07587848 -0.037483122 -0.037731472 0.098404735
0.041873876 -0.08706413 -0.014326522 0.03090668 -0.020553041 0.11516734 0.09230964 0.005735758
-0.013734018 -0.056400493 0.11139027 0.08890627 -0.0064331437 0.079660624 -0.026526073 -0.022151412
-0.0251516 -0.05788626 0.010112353 0.12337821 0.008943914 -0.054744754 0.07380484 0.029085517

user_tower.model.4.weight f4 [32, 64]
00000000: bc58 0b3d 28ee 5b3c 8b17 cabc cfe9 3a3d
00000010: 00da 2cbd 60e3 3b3d 5f00 c9bd e2c0 ecbc
00000020: 040c f4bc ee65 143d 80b5 fcbd cefd ddbd
00000030: ae6d bbbd ca0d d93d 0022 ddbd e61f efbb
00000040: a987 debd b582 27bd 0b7a ab3c 2c06 26bd
00000050: a17e d03d 4e39 9fbd 70be 1e3c cfea 0fbd
00000060: 0680 2a3d cb24 f1bd 409d fbbc 6c6f c83d
00000070: c8dc dabc fc88 b03d a981 1f3d e1a4 d53d
00000080: 2b6e 3abd fcd0 853d 708d 763d 790e 26bd
00000090: aacc f3bd 7a78 febd 1f66 a13d ac8d 913d
000000a0: c9d5 8d3d c378 7e3c 62d1 fbbd 90e8 dabd
000000b0: 7a2b a9bd 2121 e63d 8a6e 8dbd 1329 603d
000000c0: 009c 0e3d be22 1bbd 09cb 243d 8f62 b43d
000000d0: b37c 91bc 31e1 543d aaca 17bd ad6e de3d
000000e0: c904 9cbd 8b21 dabd 11e6 a03c 072e 99bc
000000f0: 518a 953d 78d0 9abd 008a 02be c015 85bc
00000100: a5fc 893d b1d3 dfbd e2f0 d9bd 35a6 6a3d
00000110: 1d79 d3bd 8e3e 10be 58be ab3b dff4 08bd
00000120: e92d 4abd 991b fd3d ef75 8e3d f588 263c
00000130: 1728 13ba 9643 2e3d e4e2 1b3e 8a5a 9a3d
00000140: 5aca 0d3e 97e2 2dbc 73f7 9d3d 69b9 05bd
00000150: 9ebd 5d3e 4007 33bc 7e23 5a3c 8a7f 153d
00000160: 6033 3cbc a9f7 1c3e 4312 12be 8577 8f3d
00000170: af58 b73b 268c 1e3e 088e d4bd ebd7 293d
00000180: e635 7b3b da8a f33d 051b fa3d ed21 193c
00000190: b3cb b6bd 9f03 35bd f1e3 b0bd 9939 09be
000001a0: 7500 513c 36a1 50bd 047e 233c 8b27 013d
000001b0: b7cf 5fbd 3c1c 0e3e 7e02 51bc a1cc babd
000001c0: 1f03 b93c 1069 323d 33e2 5fbe 80ab fa3d
000001d0: 8a58 113e 7610 12be f677 4d3d 2b1a ebbc
000001e0: 887b 013d bee8 473d 14cc 463c c918 223e
000001f0: 1a80 bebd 3c8a 993c 9095 b2bb 1044 f03c
00000200: 018e aeba 8fea 8fbd 4f4d 1bbc 1024 9a3d
00000210: b44b 9d3b f609 c33d e7b6 153d 5734 cc3d
00000220: d767 f6bd d860 b4bc 63ad a93d 6e7d 9b3d
00000230: e19f 1ebd 9207 00be 1be9 c83d b9e0 80bd
00000240: d103 1f3d 6c8d d4bc 5424 bd3d 0f30 d7bd
00000250: 90e0 93bd 1ff3 9c3d d523 13bd e57d 1f3c
00000260: 8c7a ebbd f470 4e3b 6d4b dcbc 147b 87bd
00000270: c484 d0bd 3b15 a8bd f8fe 6d3c 9ebe 1dbd
00000280: b191 803d 09a5 cdbd 56ee cf3d 5c7a 873c
00000290: 120b b9bd a528 f8bd 8e95 0ebd 0b72 12bd
000002a0: bcdd e63d 432e f0ba ed4c 463d ddf6 cbbd
000002b0: 1fed 8d3d 84e3 00bd 2232 8c3d ec1d b9bc
000002c0: 8128 9d3c fb81 7c3d 58fc febd 3720 c7bc
000002d0: e602 b53c 81f2 313c 0c25 a0bd fdab 9ebc
000002e0: fb58 f6bd 7d77 cabb f6cc e43a c787 393d
000002f0: da5f e53d 5c48 053d 210b 58bd 6c18 62bd
00000300: e51f 2b3d 9dd3 a8bd 90a5 63be 2c29 87bc
00000310: e423 993d 5380 ea3d 7759 253e 7336 0ebe
00000320: 33fc 53bc 5486 fd3d e039 513d b9c9 e33d
00000330: 3527 9d3d 6b7f 4cbd aa45 ecbd 2974 093e
00000340: d6d3 0a3e f5c5 c4bd 5011 1abd 9693 d83d
00000350: bbdf 713d dbe9 abbc 4e15 1b3e 7e5d 343e
00000360: 1ab1 243e 6d6f c13d 915c 113e 960c c8bd
00000370: e2f7 093e 2bf4 97bd 7eb7 1ebd cfbd 4dbe
00000380: 86a8 18bc b4bc 753d 88a0 d0bc 8cd3 c63d
00000390: 91cf c0ba cea2 5cbe 7b81 48be 4404 3c3e
000003a0: e0c2 05be 9962 27bd 255f f23d c7bb 80bc
000003b0: 7d39 a8bc f0c1 1fbd 4ff1 38be 42cc 0c3e
000003c0: 8065 cebd 6566 183e 1a41 2c3d dac2 e33d
000003d0: 1d7f 0ebd 97ca df3d 756a 643d 5fd1 17be
000003e0: 7f63 fa3d 4bc8 083e 018c 6e3d a62b 1ebd
000003f0: 0bab cb3d 9090 0a3d 7128 a43d 8fe8 ef3d
0.03402017 0.01342348 -0.02466943 0.045633134 -0.04220009 0.04587114 -0.09814524 -0.028900567
-0.029790886 0.03623002 -0.12339306 -0.10839425 -0.09151779 0.10598333 -0.107975006 -0.0072975038
-0.10865719 -0.040896136 0.020932218 -0.04053323 0.101804025 -0.07774602 0.0096889585 -0.03513604
0.041626 -0.11774596 -0.030714631 0.09786877 -0.026716605 0.08619878 0.038942013 0.10431839
-0.04551522 0.06534001 0.06019348 -0.040541146 -0.11904271 -0.12425323 0.07880806 0.071071
0.06925542 0.0155317215 -0.12295796 -0.10688889 -0.082602456 0.112367876 -0.06905849 0.05472667
0.034816742 -0.03787493 0.040232692 0.08807861 -0.017759657 0.05197257 -0.03705851 0.108609535
-0.076181 -0.10650929 0.019640954 -0.018698705 0.073017724 -0.075592935 -0.12747955 -0.016245723
0.06737641 -0.10929049 -0.10641648 0.057287414 -0.10325835 -0.14086363 0.0052411966 -0.033436652
-0.04936019 0.123587795 0.06956088 0.010164489 -0.0005613579 0.042544924 0.1522327 0.075368
0.13846722 -0.010613105 0.07713213 -0.032647524 0.21654364 -0.0109270215 0.013314126 0.036498584
-0.011486858 0.1532885 -0.14264779 0.070052184 0.0055952887 0.1548315 -0.10378653 0.04146568
0.0038331687 0.11891718 0.12212185 0.009346467 -0.08925571 -0.044192906 -0.086372264 -0.13400878
0.012756457 -0.050934993 0.009978775 0.03153185 -0.05464145 0.13877958 -0.012756942 -0.09121061
0.022584496 0.043557227 -0.21863632 0.12239742 0.14193931 -0.14264092 0.05016323 -0.028699001
0.03161195 0.048805945 0.012133617 0.15829767 -0.09301777 0.018742673 -0.005449958 0.02932933
-0.0013317467 -0.070271604 -0.009478881 0.075264096 0.0048002843 0.09523384 0.036551382 0.099709205
-0.12031525 -0.022018835 0.08285024 0.07592283 -0.03872669 -0.12502888 0.09810086 -0.062928624
0.038822 -0.025946341 0.09235445 -0.10507213 -0.07220566 0.07663559 -0.035922844 0.009734605
-0.11497983 0.003150043 -0.026891435 -0.06615272 -0.10181573 -0.082071744 0.014526121 -0.038511865
0.062777884 -0.100412436 0.10152881 0.016537838 -0.090353146 -0.12117127 -0.034810595 -0.03575329
0.11272761 -0.0018324334 0.048413206 -0.09959195 0.06929993 -0.031466976 0.068454996 -0.022597276
0.019184353 0.061647397 -0.124504745 -0.024307353 0.022096109 0.01086104 -0.07819566 -0.01936912
-0.120286904 -0.006178795 0.0017456103 0.045295503 0.11199923 0.03253971 -0.05274499 -0.05519907
0.041778464 -0.08243487 -0.22231126 -0.016499124 0.07477549 0.11450257 0.1614741 -0.13887958
-0.012938547 0.12379137 0.051080585 0.1112246 0.07673494 -0.049926203 -0.11536725 0.13423218
0.13557371 -0.0960807 -0.037614167 0.10575025 0.059051257 -0.020985534 0.15144846 0.1761379
0.16083184 0.09445081 0.14195468 -0.097680256 0.13473466 -0.07419618 -0.03874921 -0.20091937
-0.009317523 0.059994414 -0.025467172 0.09708318 -0.0014710297 -0.2154648 -0.19580643 0.18361002
-0.1306262 -0.040865514 0.11834554 -0.01571454 -0.020535225 -0.039003313 -0.18060802 0.13749793
-0.10077953 0.1488281 0.042054273 0.11121149 -0.034789193 0.10927313 0.055765588 -0.14825962
0.122260086 0.13357656 0.058238987 -0.038615845 0.09944733 0.03382927 0.08015526 0.11714279

user_tower.model.4.bias f4 [32]
00000000: 0103 02be 5716 31bd 45d5 7fbd bfeb 053e
00000010: ad1f 9fbc 6f1c 11be da84 e23c 6c03 5b3d
00000020: e271 843d ed32 87bc 8cae a2bd 269b bebd
00000030: cc15 cf3d 8c6e 71bd bf48 00bd 4ca0 a3bd
00000040: b208 1bbd 4462 3cbd 2600 dabb e403 bbbd
00000050: 321e 9d3a 29df 823d e4b1 483d b1df d33d
00000060: 95b7 99bd 5125 c43d 2e56 50bd 4b63 a1bd
00000070: d7b5 20bc ac96 02be aa95 ed3c 3970 efbd
-0.12696458 -0.043234196 -0.06245925 0.13078211 -0.019424284 -0.14171003 0.02765124 0.05347006
0.06467034 -0.016503775 -0.079434484 -0.09306936 0.10111579 -0.058943316 -0.031319376 -0.079895586
-0.03785009 -0.04599215 -0.0066528497 -0.091316015 0.0011987148 0.06390221 0.048997775 0.103454
-0.075057186 0.0957743 -0.050863437 -0.07880267 -0.009808979 -0.1275279 0.02900203 -0.11691327

item_tower.model.0.weight f4 [128, 9]
00000000: 0f10 30be 5038 53bd e83d 793e e0a8 c6bd
00000010: 4b5d ab3d 1b44 6b3e dafd bbbe 452b b63e
00000020: 8e9b 963d 3417 683e bb60 ad3e d17d a8be
00000030: 4979 3dbe 6ffc cbbd 184e 6a3d 1c3a c0be
00000040: aea9 78be f102 9c3e 4590 8c3e ad31 11be
00000050: dc7c 90be 25e7 b23d 936e 5a3c 15f6 f9bd
00000060: d9b5 2cbe f570 64be 1bb1 b9be 54e3 d5bd
00000070: 3e03 8a3e b5e3 4e3e 02de 893e 3058 23be
00000080: c7d2 00be 282f a4be 4cd2 363d fb9e a23e
00000090: de7e 223e 8e72 8c3d e07f 11be aa62 36be
000000a0: 325e 873e ae90 8abc 602d 86be f9c0 c7be
000000b0: cb1e b53d 489f 233e 6be5 80be aaf4 44bd
000000c0: ab27 03be de5b b4bd 60ce 9ebd 72e3 06be
000000d0: b717 80bd dc9b 92bd 32e3 f23d 6e31 343e
000000e0: 8d3e 6c3e 4f62 dc3d ebe3 033c 6815 653e
000000f0: aff0 52be 4f5a 40be 21b8 7abe 39dc 833e
00000100: 6023 f63d 4150 893e 709d f8bd 753a e2bb
00000110: 34c5 a7bd 0941 ae3e 0fa4 60be 4eb3 373e
00000120: 3284 cb3c f4a9 853e d6eb 193e 78a6 a5be
00000130: f238 693d 5af5 843e d918 7abe 04f4 683e
00000140: c503 f13b 4815 96be d637 9e3d 4750 90be
00000150: db93 a5be 3d96 9e3c 4875 8a3e c26f a83e
00000160: aabe 1abe 5801 343e 7d6b 30be 0e0e 8d3e
00000170: 3480 97be dc8c 0d3e 772d 92be 780c 803e
00000180: da60 44be 8891 c8bd 1379 e43d a491 643e
00000190: 63d3 263e 554f 603b 8f71 c03d cf76 f5bb
000001a0: 841f 13be e767 8cbe ff73 f8ba 02c6 9d3e
000001b0: cf5b 0dbe 6771 a2bd 7407 89be e3ac 70be
000001c0: 6fd0 2ebe 4fd9 413e 94ed d53e 4b54 1abe
000001d0: da52 843e 75a4 80bd 7b68 ce3d bfc8 1dbd
000001e0: 5188 083e dc90 8b3e 1b71 0c3d 5ed2 6cbe
000001f0: bf5a c33d c6ed 82be 6c49 a73e 4813 813e
00000200: be8f 2b3e 2aa3 893e 94b4 1a3e 6107 c0be
00000210: c63d 91be 5f84 16bd 042a 8a3d 876f 38bd
00000220: 2104 97bd 446f 96be 89da 453e 12ab 56be
00000230: 1f2a 193e e313 883e 62e5 11be 3230 843e
00000240: 1c1b 96be 0de5 9ebe fa79 003e c182 fbbd
00000250: 28ca f73d ae1d 07be 7e6d dcbd 8a78 debd
00000260: 4a55 313e fcbc a3be 72ef 78bb 4333 6fbd
00000270: 3281 673e 9ef9 5bbe 42cf a93c 3aac 82bd
00000280: 2897 ceba 83d2 8abe 4a9a f8bc 0e84 07be
00000290: 3978 863c 3c00 a13e d62d 7a3e 9d50 94be
000002a0: 9d9c 03be 86b0 283e 0097 513e ca87 8cbe
000002b0: a963 79be d557 47be 3d21 babd e2ee c23d
000002c0: 27d0 d6bd fafe 04bd b3db 8bbd 3393 64be
000002d0: 0f00 073e 0372 013e ef05 16be 2f2b 99be
000002e0: ec7e a7bd e3b8 e7be 681e 78be a18c d73d
000002f0: 1540 6d3e a454 f8bd cb3c 363b 5e53 7abe
00000300: be51 773e 6e2f 493e 4df4 97be 2a22 21be
00000310: 20c8 a83b c0d6 753d 53e4 91be 99a8 02be
00000320: 1704 8cbe ac5f 9b3e d274 2e3e 4dcf 203e
00000330: 7cc5 8d3d 343d 16be a4e7 043e 124c b63e
00000340: 8197 d33d 03cb 7cbe 02c5 743e 1fd9 563e
00000350: 271e b23e f1ea c8bc 4cdb 783e 76d1 85be
00000360: d3b9 863e e450 df3d 83d6 8f3d 436f 893e
00000370: c35a 82be e700 613c e90d 6a3b 02d9 103e
00000380: 4547 a8be 2030 a53d 481c fabd 9e6d 473d
00000390: e27b 633e b60b 47bd 04b2 a53e 7299 9dba
000003a0: 4755 b93e 6cb8 94be e556 713e dd93 023e
000003b0: f2a4 cc3d 9e05 a23e 11eb 5d3e 9ab8 a5be
000003c0: 5ca5 603d 71a4 10be 1689 19be bbbd 4d3e
000003d0: 4d85 0dbb d004 11be fda3 76be 50b4 4ebe
000003e0: 33f1 a8be fca0 69bd 0263 afbd 028a b6be
000003f0: e841 3cbe cc39 d83d 1ac8 243e 3510 28be
-0.17193626 -0.051567376 0.24340022 -0.09700179 0.083674036 0.22975199 -0.3671711 0.35579887
0.073538885 0.22665101 0.33862862 -0.3290849 -0.18503298 -0.09960257 0.057203382 -0.37544334
-0.24283478 0.30470994 0.2745382 -0.14179106 -0.2822026 0.087354936 0.013332027 -0.122051395
-0.16866244 -0.22308715 -0.36267933 -0.1044375 0.269556 0.20204051 0.2692719 -0.1595161
-0.12580405 -0.32067227 0.04463415 0.31761917 0.15868708 0.06857787 -0.14208937 -0.17811075
0.26439053 -0.016914692 -0.26206493 -0.39014414 0.08843764 0.1597873 -0.25175032 -0.048084892
-0.12808101 -0.08806585 -0.07754207 -0.13172701 -0.06254523 -0.07158634 0.1185974 0.17596981
0.23070736 0.107609384 0.008049945 0.22371447 -0.20599626 -0.1878445 -0.24484302 0.25753954
0.12018466 0.2681904 -0.12139404 -0.0069039413 -0.081919104 0.34033993 -0.21937583 0.17939493
0.02484331 0.26106226 0.1503137 -0.32353568 0.056939073 0.25968438 -0.24423541 0.22749335
0.0073551857 -0.2931311 0.077254936 -0.28186247 -0.32339367 0.019358749 0.27042603 0.32897764
-0.15111795 0.17578638 -0.17228504 0.27549785 -0.2959 0.13823265 -0.28550312 0.25009513
-0.19177571 -0.09793383 0.111559056 0.22321182 0.16291575 0.0034226973 0.093966596 -0.0074909697
-0.14367491 -0.2742302 -0.0018955468 0.3081513 -0.13804553 -0.07931786 -0.267635 -0.23503451
-0.17071699 0.18930553 0.4178282 -0.15071218 0.2584446 -0.06281368 0.10078522 -0.038521525
0.1333325 0.27258956 0.034287553 -0.23127124 0.09538793 -0.25572032 0.32673204 0.25210023
0.16754052 0.26882297 0.15107948 -0.3750563 -0.28367442 -0.036747333 0.06746295 -0.045028236
-0.073738344 -0.29381764 0.19321646 -0.20963696 0.14957474 0.26577672 -0.14247659 0.2581802
-0.29317558 -0.31034127 0.1254653 -0.12280799 0.12099105 -0.13194916 -0.107630715 -0.10862835
0.17317691 -0.3198012 -0.0037984517 -0.058398496 0.22607878 -0.2148194 0.020728711 -0.06380506
-0.0015761601 -0.27113733 -0.030347008 -0.13233969 0.016414749 0.3144549 0.24431548 -0.28967753
-0.12852712 0.16473588 0.20467758 -0.2744735 -0.24354424 -0.19467099 -0.09088371 0.095182195
-0.10488921 -0.032469727 -0.06829014 -0.22321777 0.13183616 0.12641148 -0.14650701 -0.2991576
-0.08178505 -0.45258245 -0.24230349 0.1052487 0.23168977 -0.12125519 0.0027807232 -0.24445865
0.24152276 0.19646999 -0.29678574 -0.15735689 0.00515081 0.060019255 -0.2849451 -0.12759627
-0.2734687 0.3034643 0.17036751 0.15704079 0.06922433 -0.14671785 0.12978989 0.35604912
0.103316315 -0.24686818 0.23903278 0.20981263 0.3478863 -0.024526091 0.24302405 -0.2613637
0.26313648 0.109041005 0.07023337 0.26842698 -0.2545987 0.013733125 0.0035713858 0.14145282
-0.32866874 0.0806582 -0.122124255 0.048688523 0.22215226 -0.048595153 0.32362378 -0.001202388
0.36197874 -0.29046953 0.23568304 0.12751718 0.09992398 0.3164491 0.21671702 -0.32367402
0.0548452 -0.1412523 -0.149937 0.20091908 -0.0021594346 -0.14161992 -0.24085994 -0.20185971
-0.3299652 -0.057038292 -0.08563806 -0.35652167 -0.18384516 0.10557899 0.16091958 -0.16412432

item_tower.model.0.bias f4 [128]
00000000: 1de3 babd d8f1 78be 7aea 9f3d 600c 8dbc
00000010: 5f2a c33e 5bf3 48be c074 73be c870 76be
00000020: 8f3e ce3e bf2a 573e f958 80be 7ec3 ccbd
00000030: b6b6 6bbe 52d4 9c3d cb23 8bbb 3a99 563e
00000040: e318 b83e 90e1 0b3e fc3a bb3d 8938 533e
00000050: f548 953e d667 0abe 58ad 2dbe 23eb c73d
00000060: bb80 47be 319d 093e debd 313e 243e 163e
00000070: 667a 093e ccf1 5c3e 4395 bfbd 6623 133e
00000080: fe43 c93e 3900 95bd 4b8a 3abe b11c 88be
00000090: b8c2 ca3e c7cc 43be f7ed 55be 72b5 29be
000000a0: 4c5f 803e 713f 143e c1d9 963e 32b1 283e
000000b0: 4e9c 0dbe 16eb d0bd de6f 20be d6fc 1bbe
000000c0: 5342 023d bdc1 473e 3ab6 e03d f636 b23e
000000d0: 1208 08be b5ec 83bd 0ddf 353b 3175 8f3e
000000e0: 948c 9e3e 0f99 3a3e 1d87 dfbd e841 523e
000000f0: e7a8 2bbc b4ae 42bc 7eee 95bd d588 ecbd
00000100: 6344 0e3c d78f 8dbe 8e87 b73a 1c31 5c3e
00000110: 9dc7 8b3d 6863 773e b031 8a3e 3e96 adbd
00000120: 81a3 af3e 364c e73d da75 57be 52eb a93e
00000130: d642 29bc 2efe 93be 70cd 2ebc ae41 32be
00000140: 96cf 393d d95f 8e3e 0902 80bd d086 70be
00000150: 0d9b 54be 44d3 a43d 388f a33e 53b3 1cbe
00000160: be89 9ebe 718c c3bd 34a8 fabd 981d 8cbe
00000170: ad6a 68be 7096 9cbe a32d fd3d 4615 ce3b
00000180: b3fe dc3c a09a 5e3e af7b 53be b449 fdbd
00000190: 63b7 3dbe a325 28be 2e17 883b def9 55be
000001a0: 932a 8e3e 977b 36be 1eff 203d 13bf bc3d
000001b0: aa3f 2d3d 87f4 21be b1e8 043e 619b 46be
000001c0: b3bd 99bd 158d a2bb 4af1 8cbd 3974 873e
000001d0: 5ab1 53be 0cbd df3e 6642 1fbe 53be 2b3e
000001e0: 92a2 0dbe a063 10be b183 563e 7457 8dbe
000001f0: 4fa6 02be dc3a 9c3e 296f c9bd 8fe3 ac3e
-0.0912535 -0.24311006 0.07808395 -0.017217815 0.38118264 -0.19624083 -0.23775005 -0.2406646
0.40282103 0.210124 -0.2506788 -0.09998225 -0.23018917 0.076576844 -0.00424621 0.20956889
0.35956487 0.13660264 0.0914211 0.20627035 0.29157224 -0.13516173 -0.16960657 0.09761646
-0.194827 0.1343887 0.17357585 0.14672142 0.13425598 0.21576613 -0.09354641 0.14368972
0.39309686 -0.07275433 -0.18216817 -0.2658439 0.39601684 -0.19121085 -0.20891558 -0.16573122
0.25072706 0.14477326 0.29463008 0.16473845 -0.13829157 -0.10201089 -0.15667674 -0.15233168
0.031801533 0.19507499 0.10972257 0.34807557 -0.13284329 -0.06441633 0.0027751357 0.28019097
0.30966628 0.1822245 -0.10914443 0.20532954 -0.010477281 -0.011882473 -0.073208794 -0.11549536
0.008683297 -0.27648804 0.001400219 0.21503109 0.068251826 0.24159014 0.26991034 -0.08475922
0.3430443 0.11293833 -0.2104105 0.33187348 -0.010330876 -0.2890486 -0.010669097 -0.17407867
0.045363985 0.278075 -0.06250388 -0.23488927 -0.20762272 0.08048108 0.31945205 -0.15302782
-0.30964464 -0.095482714 -0.122391135 -0.27366328 -0.22696944 -0.30583525 0.1236222 0.006289157
0.026976919 0.21738672 -0.2065265 -0.123675734 -0.18526988 -0.16420607 0.004153154 -0.20896098
0.27766857 -0.17820583 0.0393058 0.09216132 0.042297043 -0.15815936 0.1297939 -0.1939521
-0.075068854 -0.004960666 -0.0688196 0.26455858 -0.20673123 0.4369892 -0.15552673 0.16771822
-0.13831547 -0.14100504 0.20948674 -0.27605784 -0.12758754 0.30513656 -0.09835655 0.33767363

item_tower.model.2.weight f4 [64, 128]
00000000: 1f7e ea3d b9f6 0dbc 3279 50bd 69f8 19bd
00000010: 5731 cdbd c1b8 3f3b 7609 fa39 1fd7 083e
00000020: 188a f63c 607b 0f3c 2f0f 0c3d e61a 6c3d
00000030: 6dd7 623c 81b2 453c b6c6 cb3b 473f bb3c
00000040: 1338 65bd b8aa 14ba 5c9b b63c 3d50 97bc
00000050: a389 b23b d461 cd3c 06b9 b7bd 1085 9b3c
00000060: c7cc 843c 28d8 193e c367 e13b ac26 9bbd
00000070: 9699 14be c8de cf3c 9729 8dbd 0b13 c53d
00000080: 2740 0cbd dacd 133e 5ce0 f43a c8ed cf3d
00000090: 70f0 a33c bbe7 863d 5b27 033e 6aa4 3abb
000000a0: df53 bf3d 5b9b 92bd 7ef4 55bd 01c9 0abe
000000b0: f6de fdbb ff0b 233b b290 56bc 53c6 103d
000000c0: b488 a93d 5c51 0cbe e119 803d 0350 88bb
000000d0: 8202 cd3d 05e3 3bbd 7e44 b13d f1eb c43c
000000e0: b69a eebc 5c3b 4e3c ddf5 cc3d 6b64 54bd
000000f0: 5dc5 febc 6fb9 7cbd e8b2 28bc acce 463d
00000100: 311a c8bd 5d3e d53d 5ce5 523d 4fd2 a1bd
00000110: 94ac d2bc b9c3 e2bd 87a5 9c3d 98b7 fd3d
00000120: b319 1b3d b4d9 b03a 6e40 e23d 25eb fcbd
00000130: 2126 133e c400 db3c 70a4 cfbd 2c25 32bc
00000140: 1cd3 8d3d 7ae1 a53d e3db 30bc 7991 7f3d
00000150: 0cf8 913d 2065 383c 6655 733d fb45 08bd
00000160: 8ef5 503d e6a4 ca3d db5e 05bc 52cc 08bc
00000170: b7cc 013d 13b8 913d e3cb 56bc 7f30 313e
00000180: 2a4f bc3d e29c 60bd ff22 953c b4aa d8bc
00000190: 3e3f ebbc 416a e03c c161 d03d 742d 7abc
000001a0: 9759 01bd b53d bbbd 88eb 9abc 60e7 233d
000001b0: 282c 943c ffa4 5cbd 20be 823d 7d4a 53bb
000001c0: eda7 d03c 4901 a6bc 2698 d6bc 81b2 7cbc
000001d0: 1851 c6ba 4699 43bd 48d7 f1bc 2d2a 07bc
000001e0: 73bc a63d e06a 503d c5de 0bbc d909 25be
000001f0: f2db 653c 5554 5d3c 9b5d 8cbd 30cd 7a3d
00000200: 41d1 e5bc 2cea f63c 6372 30bc 4485 34bd
00000210: d4f1 823c 12d8 e03d 576e d83d 4afa 443d
00000220: e4a9 c63d 031a 1bbd f31d 81bb 704c 993d
00000230: b335 a1bc 8b4b 77bd 4dbb 953d 0758 9e3c
00000240: cebb 223c 6d7c 32bd eba0 ae3c 8070 a83d
00000250: 3b75 0d3c 1b13 c13d f1b1 89bd dca3 d13d
00000260: fc85 e33d 4dbc d9ba db57 8dbd bbd2 a7bc
00000270: ade8 e6bc ae02 3a3d a3d4 903d 38b2 b7bc
00000280: fc01 36bd 819f 9e3d 44be 273e 973b c23b
00000290: 690c f13c 8cce 93bd ca59 713d 18ab 963d
000002a0: cba6 26bd a88f e1bc 6655 2a3d 629f 94bd
000002b0: ee89 013e 5476 13bd 9f28 15bd b19e ac3d
000002c0: 8378 8d3c 341a 8ebc 869e 07bc 0356 23bd
000002d0: 837d 17bb 2639 c0bb 0f60 72bd 9d2a 5fbd
000002e0: bcfa d33b 6ca8 57bd 5d0e 8a3c c9b6 6bbd
000002f0: 406b fd3d a762 e7bd 9c96 a73d 462f 2abc
00000300: d3c0 5e3c 70bc 79bd b374 ca3d edf4 0abe
00000310: 306e 213d f2d0 ad3d 4654 f83d 15fb 363e
00000320: f74b f33c b0f6 ccbc 0737 8f3a f246 b73d
00000330: d8c9 a53d fce4 1cbd 9bc1 923d d017 633d
00000340: 184c a03c 51e7 d5bc e2c8 05bd 9a13 a3bc
00000350: 83d5 a73d 1d75 373d 295b 75bd c252 45bd
00000360: d9c3 253d 0edb ca35 3468 e7bc fae3 323e
00000370: 1788 17bd 27d5 483d 408b 3bbd 8c8a d83a
00000380: 67e1 d338 569b 7f3c 16af 16bc b9cd a93c
00000390: 9284 af3d 9952 9ebd 8e59 2f3d 73a4 fb3d
000003a0: 276b 8dbd 1f42 223e eaf7 5f3c 9d2e a43d
000003b0: 3416 c73d dd38 273d 7ed3 9bbd b8f0 133e
000003c0: db78 ddbc c51d fcbd 4f7b 873d 8e78 bc3b
000003d0: 60d9 a6bd 2d42 873c 35d8 c23d 26c9 b2bd
000003e0: 145d 773d f9e1 c03c 4cdc 163c 2795 0fbc
000003f0: 4790 a13d 53ec 58bd 809c e4bc 291b 80bd
0.11449837 -0.00866478 -0.05089683 -0.037590418 -0.100191765 0.002925441 0.00047690765 0.13363312
0.030095145 0.008757442 0.034194168 0.05764284 0.013845307 0.012066484 0.0062187565 0.022857321
-0.05596168 -0.0005671191 0.022290878 -0.018470878 0.0054485365 0.025071062 -0.08970837 0.018984348
0.016210927 0.15023863 0.0068788244 -0.075757354 -0.14511713 0.025374785 -0.06892698 0.09622773
-0.034240868 0.14433995 0.0018682587 0.10152775 0.02001211 0.06587168 0.12807982 -0.0028479346
0.09342169 -0.07158538 -0.05223512 -0.1355324 -0.0077475263 0.0024878976 -0.0130960215 0.035345387
0.08278027 -0.13702911 0.06254936 -0.0041599288 0.10010244 -0.0458708 0.08655642 0.024038287
-0.029126506 0.012587395 0.10007832 -0.05185358 -0.03109997 -0.06170028 -0.010296561 0.04853694
-0.097706206 0.104122855 0.051488265 -0.07901441 -0.025717057 -0.110724874 0.07648759 0.12388533
0.037866306 0.0013492615 0.11047445 -0.12349538 0.14370014 0.026733764 -0.10138786 -0.01087312
0.069250315 0.08099647 -0.010794613 0.062394593 0.07127389 0.011254579 0.059407614 -0.033269864
0.05101543 0.09894733 -0.008140291 -0.008349495 0.031689372 0.071151875 -0.013110134 0.17303656
0.09194787 -0.054837115 0.018205164 -0.026448585 -0.02871668 0.027394416 0.10174895 -0.015269626
-0.03157958 -0.09142629 -0.018911138 0.04001558 0.018087462 -0.05386829 0.0638392 -0.0032240443
0.025470698 -0.020264285 -0.026195597 -0.015423418 -0.0015130369 -0.047753595 -0.0295216 -0.008249802
0.081414126 0.050883174 -0.008536999 -0.16117038 0.01402949 0.013508876 -0.06853791 0.06123084
-0.028053882 0.030140959 -0.010769459 -0.044072405 0.015984453 0.10978712 0.10567921 0.048090257
0.09700373 -0.037866604 -0.003940338 0.074852824 -0.019678926 -0.060374778 0.073111154 0.019329084
0.009932471 -0.043575693 0.021316966 0.08224583 0.008633907 0.09427472 -0.06723393 0.10236332
0.1110954 -0.0016611904 -0.06901523 -0.020486226 -0.02818712 0.04541271 0.07071807 -0.022423849
-0.044435486 0.07745267 0.16381174 0.005927514 0.029424863 -0.0721713 0.05892352 0.07356852
-0.04068641 -0.027534321 0.04158535 -0.07256962 0.12650272 -0.03600152 -0.036415692 0.084287055
0.017269379 -0.017346479 -0.008277541 -0.03987695 -0.0023115582 -0.0058661876 -0.05917364 -0.054484
0.006469099 -0.052650854 0.016852552 -0.057547364 0.12373972 -0.11298113 0.08183023 -0.010387247
0.013595778 -0.060970724 0.0988554 -0.13569994 0.039411724 0.08487119 0.12125449 0.17869218
0.029699309 -0.025019974 0.0010926434 0.089490786 0.08095139 -0.038304314 0.071658336 0.05544263
0.019567534 -0.026111277 -0.03266228 -0.019906808 0.08195021 0.044789422 -0.05990139 -0.048174627
0.040469978 1.5113926e-06 -0.02824793 0.17469779 -0.03699502 0.049031403 -0.045787096 0.0016520782
0.000101032485 0.015601 -0.009197017 0.020727979 0.08570208 -0.07730598 0.042810015 0.122872256
-0.06905203 0.15845536 0.013669947 0.08016703 0.09721032 0.040825713 -0.07608698 0.14447296
-0.027035167 -0.123103656 0.06615316 0.005751676 -0.0814693 0.016511047 0.095138945 -0.08729772
0.0603915 0.023545252 0.009207796 -0.008763588 0.07888847 -0.05295975 -0.027906656 -0.062551804

item_tower.model.2.bias f4 [64]
00000000: a7fb d03c c2b7 643c 0830 e4bc 17f1 0c3d
00000010: 0e76 d83d 36bc 27bd a121 97bd 3c47 cbbd
00000020: 451e b83d d489 ccbd 80ae 55ba 7cd6 bf3d
00000030: d080 7cbd 7d2f 48bc 0d6f a23d 7349 a5ba
00000040: fcf4 98bd a426 62bd c5f7 53bd b2ed 0f3e
00000050: a333 913d 2a29 efba acf7 473d 4b56 3bbd
00000060: c958 c5bd 3f9b b1bd b73f 0abc 36de 003e
00000070: 4d72 9b3d c6df 83bd e908 0cbd 24a4 5c3d
00000080: 2129 43bd d2d4 23bd e2a8 2a3e d392 0ebd
00000090: 5444 df3d e15c 03bd 1c4b f2bc beb4 923d
000000a0: c109 bdbb e474 c03d 5963 dd3c 854c d4bd
000000b0: fa96 e1bc 67f3 5f3d d558 dfbb 70be 68bc
000000c0: f14c b1bc 85fe e83c d87d ed3d 7733 94bc
000000d0: e343 ad3d 75a4 a43c 2dde f43d 1ab5 be3d
000000e0: 8434 073e 5cae fe3d 6acf 193e a268 62bd
000000f0: d847 6d3b c944 afbd 28d2 993d 25cf 0a3d
0.025510622 0.013959827 -0.027854934 0.03440961 0.10569392 -0.040950976 -0.07379461 -0.09925696
0.089901485 -0.09987226 -0.00081513077 0.093670815 -0.061646283 -0.012218353 0.079313375 -0.001261039
-0.07468602 -0.05521263 -0.051749963 0.14055517 0.07089927 -0.0018246521 0.048820183 -0.045736592
-0.09636075 -0.08672189 -0.008438042 0.12584767 0.075901605 -0.06439166 -0.034188185 0.053867474
-0.047646645 -0.039997883 0.16665986 -0.03480799 0.109017044 -0.032070998 -0.02957683 0.0716338
-0.005768985 0.09397295 0.027024912 -0.103661574 -0.027537812 0.054675486 -0.0068160095 -0.01420556
-0.021643134 0.028441677 0.115962684 -0.018090947 0.08460214 0.02009795 0.11956439 0.09311886
0.13203627 0.124356 0.15020528 -0.055275567 0.0036206152 -0.085580416 0.07510787 0.033888955

item_tower.model.4.weight f4 [32, 64]
00000000: b2b7 0c3d 9895 743d 9862 d0bd f754 ccbd
00000010: 22ed 2dbd 2eae 95bd 6aab a5bd facb c8bd
00000020: 3aa0 2cbd 883c 26bd c518 a73c ad12 3e3d
00000030: 60da 7c3d 7493 2ebd 82da d43d 1280 d1ba
00000040: c060 83bb 75fb 8bbd ed1c 0a3d 4274 bdbc
00000050: c6d7 f0bd 0981 efbd fe13 d7bd 920f 9d3a
00000060: 0c1d 33bc eb03 c53c d238 5bbd 6313 a5bd
00000070: 7079 bd3d cc11 e13d d5e5 5ebd 6eb5 97bd
00000080: 82cc b5bd afc9 223c b7f9 a43d ce3b 633d
00000090: 354d da3c c561 e63d ba44 e5bd 436b c23a
000000a0: 9723 b03c e132 cb3d dcdc 28bd 5b45 dabd
000000b0: dad8 3abd 40c2 bebd 8457 25bc 0be5 2d3d
000000c0: 369b 31bd bd05 11bd 999d f53c a046 4dbc
000000d0: 1c70 63b9 84a9 55bc f6d4 7c3d 77ee dabd
000000e0: 723d cd3d edf4 703b 9812 b7bb 1089 a3bd
000000f0: 6994 ca3d e4db 54ba 733b abbd b99b 813c
00000100: 8b8a e23d 093b b3bd 2ff6 6a3d 00c8 083b
00000110: 8582 7abb 7790 f2bd e063 1ebc dfe2 d53d
00000120: 4432 50bd bb21 263a e97f b1bd af83 4c3d
00000130: 50d5 81bc 267d 0fbd eaab aebd c664 8b3d
00000140: fa29 e3bd b4a6 9d3d 438d 0bbe b478 0d3e
00000150: 27f1 08be a9d2 343d 2a1e fc3d 91b1 11be
00000160: a3fb 10be 7c0b 133e a976 a1bd d390 dabd
00000170: 08d1 3b3c 463d 903d f2ae 9cbd 44aa c0bd
00000180: 3690 f2bd de4d 1b3e 2f43 843d e263 123e
00000190: 8d12 ee3c 88d2 babd 7331 00be 29c9 d0bd
000001a0: 4395 953d 8fa7 11bd e835 9c3d a76b 8dbd
000001b0: b5e6 b8bd cd93 0c3e 27de 223d 1941 4cbd
000001c0: dc4a 4d3c 8535 a63d 2afb 94bd ab30 523c
000001d0: af07 babd baed db3c f897 4abc 9b6d 0e3e
000001e0: c897 edbc 7e55 07be d496 783d d739 26bd
000001f0: 2239 b73d d3b9 98bc 016f a1bd 8c1f 813c
00000200: 9884 debd ce21 08bd f3c9 113d 4471 933d
00000210: 251e 273d c141 f3bc 54e0 42bb 13af 07be
00000220: 12e6 9a3d 3f2d ba3d cba3 9bbd e8c1 94bd
00000230: b2f7 c5bd 0030 e73d c839 9a3d 495d 66bd
00000240: 556b 84bd 0f42 9ebd b20c a63c fe32 37bd
00000250: 0240 f63c c13a 9d3d 7b75 c13c 10c3 a0bc
00000260: 2276 6b3d b119 313b 0585 3a3d 8a1e ba3d
00000270: 6cf6 d93c 59fb 983b 9579 d4bd 4619 01bd
00000280: af14 d2bc 1875 cf3d 75fc 1cbd 697b 9e3d
00000290: f160 f7bd 661f fbbd 2616 febd b01a 5fbd
000002a0: 41ba fdbd ee46 b23d dd00 993d 329c cebd
000002b0: 2f01 263d ea3a c8bd 4995 a2bc 2888 603d
000002c0: de19 23bd c258 c63d fd6f 06bd c6a2 e43d
000002d0: 7c6c b53d 783c adbc ef50 b0bd 23e6 673c
000002e0: f78d 08bc 944e 8e3d 09bf 153c d9aa babc
000002f0: eaa8 c53d 11d7 08be 888d ffbd 3877 113d
00000300: 3139 05bd 4ba6 debc 2f74 fdbd dbf9 2c3e
00000310: 2dce 1e3e 6177 04bd 1010 353d 3e1c c5bd
00000320: 019d 3bbe b499 57bd bc8f f4bd c5ab 3dbd
00000330: 9b47 a1bd a02f dabd cbeb 23be 895f b7bd
00000340: b0f2 843d 8aa9 e1bd 9ded 863d 6080 71ba
00000350: fbf3 b63d d832 c53d e4a0 fa3d b465 9e3c
00000360: 80f8 49bd 3dc5 35be 5d26 c63d 357e 74bd
00000370: a9e4 263d ad18 9c3c 2156 f7bd ddf8 473d
00000380: ee29 fb3c 9db8 b73d 936d 2b3c b0db 0dbe
00000390: b446 f2bd 4afe 27be 252b 8cbd e24c 4b3d
000003a0: 74f4 ea3d 6ffb 34bd 4102 513d 5e96 b83c
000003b0: 0b31 fbbd d822 b83d 722e 10be ef73 c13d
000003c0: 5dc3 113e 1b5c 50bd 8d8c abbb 4f39 8fbd
000003d0: 9323 bebd e90c dcbd e69c 223e e5c3 08bc
000003e0: 2aa2 8cbd aa45 f3bd 023f 063e 8a04 1f3e
000003f0: 3c40 103d 3ac7 08be 70cb b83d dec4 cf3d
0.034354873 0.059712976 -0.10175055 -0.09977143 -0.042462476 -0.07308613 -0.08089335 -0.098045304
-0.04214499 -0.04058507 0.020397553 0.04640453 0.061731696 -0.04262109 0.103932396 -0.0015983602
-0.0040093362 -0.06835071 0.033718992 -0.023126725 -0.117599055 -0.116945334 -0.1050186 0.001198279
-0.010932218 0.02404972 -0.053520985 -0.08060338 0.09251678 0.109897226 -0.054418404 -0.07407652
-0.088768974 0.00993578 0.08055442 0.055476956 0.026648143 0.11249117 -0.11194749 0.0014832992
0.021501346 0.09921814 -0.041226253 -0.1065776 -0.045616962 -0.09314394 -0.010091666 0.04245476
-0.04336091 -0.035405863 0.029982375 -0.012529045 -0.00021690171 -0.013040904 0.061726533 -0.10690015
0.100214854 0.003676708 -0.0055869333 -0.07985127 0.09891588 -0.00081199245 -0.083609484 0.015821325
0.11061581 -0.087514944 0.057363685 0.0020871162 -0.0038224768 -0.11843961 -0.009667367 0.10443663
-0.050829187 0.00063374237 -0.08666975 0.04993027 -0.015848786 -0.03503146 -0.08528884 0.068063304
-0.11091991 0.07697812 -0.13628106 0.13815576 -0.13373242 0.044146214 0.12310441 -0.14227892
-0.14158492 0.1435985 -0.07883961 -0.10672154 0.011463411 0.07042937 -0.07650556 -0.094074756
-0.11843912 0.15166423 0.06458127 0.14295915 0.02906158 -0.09122187 -0.12518863 -0.10194618
0.0730386 -0.035560187 0.07627469 -0.06905299 -0.09028379 0.13728257 0.039762642 -0.04986677
0.012530055 0.08115677 -0.07274468 0.012828986 -0.09083497 0.026846755 -0.012365334 0.13908999
-0.029003039 -0.13216206 0.060690716 -0.040582504 0.08946444 -0.018643295 -0.078825004 0.015762113
-0.10865134 -0.033235364 0.035592984 0.07199338 0.040800232 -0.02969444 -0.002973576 -0.1325038
0.07563414 0.09090661 -0.075996004 -0.07263547 -0.09666385 0.11288452 0.07530552 -0.056241307
-0.064657845 -0.077274434 0.020269725 -0.044726364 0.030059818 0.07677222 0.02361559 -0.019624263
0.057485707 0.002702337 0.045537014 0.09087856 0.02660676 0.004668635 -0.103747524 -0.031518243
-0.025644628 0.10129756 -0.0383267 0.07738382 -0.12079037 -0.12261848 -0.12406568 -0.05446881
-0.12389041 0.08704935 0.07470868 -0.10088386 0.040528473 -0.09776862 -0.019846575 0.05481735
-0.03981959 0.09684898 -0.032821644 0.11163859 0.088585824 -0.021146998 -0.08609187 0.01415399
-0.008334628 0.06948581 0.009139785 -0.022786545 0.096513584 -0.13363291 -0.12478167 0.035514086
-0.032525245 -0.027178904 -0.12375676 0.16892187 0.15508337 -0.03234041 0.04420477 -0.096245274
-0.18321611 -0.052636817 -0.11941478 -0.04630639 -0.07874986 -0.10653615 -0.16007917 -0.08953769
0.064916015 -0.11018665 0.0658829 -0.000921255 0.08933254 0.09628838 0.12237719 0.019335605
-0.049309254 -0.17751022 0.09675286 -0.059690673 0.04074541 0.019054735 -0.12076975 0.04882132
0.030659642 0.08970759 0.010463136 -0.13853335 -0.11829892 -0.16405597 -0.06844167 0.049633868
0.11472407 -0.0441851 0.05102754 0.022532638 -0.122652136 0.08991021 -0.14080217 0.09445941
0.14234681 -0.05086909 -0.005235261 -0.069933526 -0.09284129 -0.1074465 0.15880165 -0.008347486
-0.06866868 -0.11878522 0.13109973 0.15529075 0.03521751 -0.13357249 0.090231776 0.10144971

item_tower.model.4.bias f4 [32]
00000000: fa38 33bd eea8 d3bd 1208 20bd e54c d03c
00000010: 84d2 a13d 4737 79bc 57f1 b5bc f889 f6bc
00000020: 4d2b 113e 7478 febb 8148 c0bd 5533 f43d
00000030: 04ba 07be 6ab2 d13d 26bb 90bd 51db 7b3d
00000040: 0cb4 ecbd 6ab8 a3bd aa3b b0bc 9c73 923d
00000050: db8e 9cbc c4cd d4bd be21 06be 68f9 b5bd
00000060: bffb 1a3e c13f 47bd c0ed 36bc 84e7 eabd
00000070: fe88 ed3c db5b d13d 2bb6 c9bc c1d9 633e
-0.04375551 -0.10334955 -0.039070196 0.025427291 0.07901481 -0.015210933 -0.022209806 -0.030095086
0.14176674 -0.007765824 -0.09388829 0.11923853 -0.13254553 0.10239108 -0.07066946 0.061488453
-0.11557779 -0.079941586 -0.021512825 0.07150957 -0.019111088 -0.10390809 -0.13098809 -0.08885461
0.15135096 -0.048644785 -0.011165082 -0.11469939 0.028995987 0.10222598 -0.024622997 0.22251035
